artefacts/model.pth (torch, 110604 bytes, 15 tensors)

embedding.weight f4 [100, 32]
0.8579358 -1.8506343 0.4771916 -0.12763023 -0.94906545 1.7613953 -1.47853 -0.047783807
0.7238946 -0.38010916 0.2428895 -1.3651543 0.13074838 0.079593316 -1.4476136 -2.0088058
-1.714522 -2.2430987 0.419972 -1.2020559 -1.0570828 0.51587427 2.1771772 -0.46717277
0.51114666 0.773881 -1.6632179 -0.493025 0.045223795 1.5538219 0.10505865 -0.31730464
0.44299442 -0.6205942 1.1224836 -1.460913 1.3774896 -1.0147495 -0.36257043 1.6862193
-0.9529437 1.6209526 3.3487575 -0.63841957 0.4036132 0.277709 0.60450894 1.6062897
-0.05174887 -1.6361514 3.9058602 0.6071178 1.5979149 0.25068966 1.081698 1.3308542
0.038648203 1.6817844 0.6124988 1.4889294 -2.8150291 -1.4672793 0.21343826 -1.226796
1.3547077 -1.8022785 0.9538759 -0.14286593 -1.3955333 -1.3506628 0.029831767 1.0176308
0.16267397 -0.8971989 0.6862953 -0.7444213 2.2624724 -0.44067255 -1.9534725 0.11802599
-1.4251744 -0.49306145 1.5263859 -1.2261394 -1.9579309 -1.2096567 1.1931778 0.23556912
-0.3833389 2.5061858 0.7803503 1.4117498 1.3910652 2.1168962 -0.65880215 0.46666235
2.1502864 -0.4943231 -1.0336109 -0.8334512 1.8152326 -1.1493821 1.1354548 -0.3061145
0.913275 -0.027276175 1.1929423 -0.595016 -0.008761054 -0.71969295 -0.5925833 -1.8115028
1.1367686 -0.69808394 0.63302547 1.9160111 -0.65852404 0.4233288 -1.1117274 -1.8143901
-0.64998215 1.7346063 0.34769967 0.50309813 0.4424022 0.006114347 -1.3259078 -0.051479384
1.9077708 0.8505689 0.06495087 0.069771826 -1.2309582 -2.976253 0.095297724 -0.17920724
-1.3863994 -1.8368044 -1.0254658 -0.9962258 0.94178736 -0.18611975 0.20563366 -0.07399661
0.3863947 -1.0609603 0.081833884 0.809289 1.3802204 -0.24815008 -2.7110052 -1.2451483
0.41031998 -0.81036973 0.42166176 -0.8821969 -0.7798832 0.11839878 -0.9555848 1.7012872
0.22650959 -0.97189057 1.3294408 1.5309718 -0.32592365 1.220568 2.1657689 1.3373619
-1.2523632 0.17136416 0.47185457 -0.047613475 -1.2651993 -1.6315244 1.368895 -0.28789026
-0.42737472 -1.2028891 -1.2561126 0.9384447 -2.0375986 -0.24474244 -2.3863468 -0.8810667
-2.6381414 1.4347659 -0.4710727 -0.10349849 -1.5567033 -1.6265366 1.3122869 0.69899875
-1.7726327 1.7118715 -1.8420527 -2.007713 3.092818 -0.26229936 -0.5907157 1.4719086
-0.44429797 1.5606375 3.931215 -3.3197665 -0.93436813 0.172555 0.8077944 -0.39555436
2.0610344 -0.67927533 -0.18346508 0.894585 -0.8784165 0.5148846 -0.8324723 -0.24507383
-0.22826445 2.1626916 -2.2376375 1.1402553 -0.45638287 -0.2911664 -1.398513 0.39884904
2.0651705 2.1653707 2.262814 -4.8050094 0.14978525 0.76840085 -0.16698644 0.9096713
2.969239 1.9955893 2.9605966 0.7087904 2.3267815 3.1069996 0.06559622 -0.26547492
-0.018408058 -2.071104 1.8547306 -2.4911497 -1.5821217 1.8015895 1.3246822 1.4671756
-0.7865488 0.59995025 2.734467 -2.722638 0.34472966 0.40878546 0.84812456 -4.056103
00000000: aea1 5b3f 96e1 ecbf 7552 f43e 80b1 02be
00000010: f4f5 72bf 6775 e13f 7940 bdbf f4b8 43bd
00000020: 2851 393f ab9d c2be 06b8 783e 60bd aebf
00000030: e7e2 053e d201 a33d 674b b9bf 4690 00c0
00000040: 7575 dbbf ee8e 0fc0 9206 d73e f8dc 99bf
00000050: 7d4e 87bf 5610 043f df56 0b40 4531 efbe
00000060: 82da 023f 111d 463f 53e4 d4bf c66d fcbe
00000070: 963c 393d a3e3 c63f fd28 d73d c175 a2be
00000080: 2ad0 e23e 43df 1ebf 8bad 8f3f 32ff babf
00000090: 9451 b03f 50e3 81bf d5a2 b9be 09d6 d73f
000000a0: 1ef4 73bf 607b cf3f 0b52 5640 776f 23bf
000000b0: 64a6 ce3e e02f 8e3e 19c1 1a3f e79a cd3f
000000c0: a0f6 53bd 696d d1bf 9df9 7940 126c 1b3f
000000d0: 7a88 cc3f 655a 803e 1475 8a3f 6e59 aa3f
000000e0: 944d 1e3d b644 d73f b9cc 1c3f 3d95 be3f
000000f0: 7029 34c0 cfcf bbbf 8f8f 5a3e a707 9dbf
00000100: 1067 ad3f 10b1 e6bf 3631 743f 724b 12be
00000110: d6a0 b2bf 85e2 acbf c061 f43c ba41 823f
00000120: 0194 263e d4ae 65bf 0cb1 2f3f 6592 3ebf
00000130: 59cc 1040 d59f e1be 630b fabf 9cb7 f13d
00000140: 1d6c b6bf 8d72 fcbe 9d60 c33f 23f2 9cbf
00000150: 7b9d fabf 08d6 9abf 0dba 983f 0839 713e
00000160: ff44 c4be 5965 2040 0ac5 473f 38b4 b43f
00000170: 6d0e b23f 3a7b 0740 42a7 28bf 5eee ee3e
00000180: 4b9e 0940 eb17 fdbe 5d4d 84bf 0f5d 55bf
00000190: 8b59 e83f f41e 93bf 9556 913f 0abb 9cbe
000001a0: 64cc 693f 4972 dfbc 55b2 983f f852 18bf
000001b0: 868a 0fbc cc3d 38bf 8ab3 17bf 53df e7bf
000001c0: a281 913f a1b5 32bf f50d 223f da3f f53f
000001d0: 0895 28bf 8dbe d83e 154d 8ebf ef3d e8bf
000001e0: 3b65 26bf 9407 de3f b105 b23e 0acb 003f
000001f0: 8b82 e23e dc5a c83b 59b7 a9bf 0cdc 52bd
00000200: d531 f43f e2be 593f f604 853d 88e4 8e3d
00000210: 0a90 9dbf ee7a 3ec0 742b c33d 1a82 37be
00000220: 8975 b1bf 681c ebbf 7742 83bf a708 7fbf
00000230: fa18 713f 2d96 3ebe a191 523e 898b 97bd
00000240: 87d5 c53e 8ccd 87bf 8698 a73d 902d 4f3f
00000250: 10ab b03f 0e1b 7ebe 1c81 2dc0 0561 9fbf
00000260: 7615 d23e 6474 4fbf 0de4 d73e a8d7 61bf
00000270: 6da6 47bf 0f7b f23d 35a1 74bf c7c3 d93f
00000280: 21f2 673e d2cd 78bf 1e2b aa3f e2f6 c33f
00000290: 77df a6be 923b 9c3f f59b 0a40 ad2e ab3f
000002a0: 704d a0bf 167a 2f3e ec96 f13e 5906 43bd
000002b0: 0df2 a1bf cbd5 d0bf f437 af3f 5a66 93be
000002c0: dcd0 dabe 45f8 99bf 4cc8 a0bf e93d 703f
000002d0: 0468 02c0 c39d 7abe e8b9 18c0 968d 61bf
000002e0: 4fd7 28c0 69a6 b73f 7130 f1be 04f7 d3bd
000002f0: 0e42 c7bf 5a32 d0bf 04f9 a73f 95f1 323f
00000300: a1e5 e2bf 9b1e db3f 62c8 ebbf 5f7e 00c0
00000310: bbf0 4540 1a4c 86be 2539 17bf 8067 bc3f
00000320: 067b e3be f8c2 c73f 0799 7b40 0e77 54c0
00000330: c032 6fbf 42b2 303e 9dcb 4e3f 1a86 cabe
00000340: fde7 0340 fde4 2dbf 45de 3bbe 8603 653f
00000350: e7df 60bf 7acf 033f e81c 55bf a2f4 7abe
00000360: 28be 69be 8a69 0a40 7435 0fc0 e3f3 913f
00000370: 04ab e9be c313 95be 7902 b3bf f135 cc3e
00000380: c12b 0440 6f95 0a40 f2d1 1040 a3c2 99c0
00000390: 4e61 193e ebb5 443f 7efe 2abe 38e0 683f
000003a0: 0308 3e40 786f ff3f 6a7a 3d40 4a73 353f
000003b0: fde9 1440 15d9 4640 5057 863d 54ec 87be
000003c0: 7fcc 96bc f88c 04c0 d067 ed3f ff6e 1fc0
000003d0: f782 cabf 7c9a e63f 308f a93f 69cc bb3f
000003e0: 435b 49bf 5796 193f 8201 2f40 b33f 2ec0
000003f0: 6880 b03e 544c d13e b11e 593f 99cb 81c0

project.weight f4 [64, 32]
-0.64547914 0.44417688 0.50596255 0.78393483 0.6638659 -0.7780327 0.57020444 -0.5479541
0.61020046 0.42814314 0.5893049 0.64470756 -0.50398356 0.7047129 0.4523659 0.42292207
0.63510007 0.4926097 0.4707386 0.5039188 0.6134129 -0.49542987 -0.44700167 0.6752449
-0.41695166 -0.6017465 0.66450244 -1.0286194 -0.82462484 -0.47407585 0.75331336 -0.5351774
-1.3971666 0.5881342 0.096780606 -0.3018105 0.6982987 -0.09013607 0.10650504 -0.60818654
-0.22504787 0.17248017 0.43475917 0.81349033 -0.3904923 0.60106975 0.44664493 0.19714001
0.68317187 0.018775223 -0.16706169 0.8463893 -0.12749101 0.35281134 -0.66417664 -0.51048034
1.1714926 -0.4298771 0.12708224 -1.2231414 0.30739087 -0.5056864 0.07719753 -1.3649418
-0.63139206 0.6510444 0.85862225 0.62857175 0.0962834 -0.39659923 0.73725486 -0.42623195
1.0986146 0.45514262 0.4146279 0.6794574 -0.7760834 0.53089 0.7194792 0.53531116
0.67742515 0.7476414 0.6864741 0.6256824 0.5518685 -0.48543125 -0.7305367 0.5555886
-0.055126246 -0.43373907 0.41827697 -0.648292 -0.9717911 -0.5317714 0.35439608 -0.7984828
-0.58155626 0.5999037 0.454265 0.60972935 0.37799522 -0.65287304 0.65311533 -0.46356744
0.5273888 0.53791463 0.6800085 0.45723787 -0.6216592 0.6937224 0.5087766 0.5367012
0.7059357 0.62550026 0.6816527 0.5524022 0.7032139 -0.6726375 -0.43771848 0.44969553
-0.54934055 -0.5693417 0.7070095 -0.9136967 -0.9436487 -0.53769094 0.56234 -0.4867663
-0.4605739 0.5250546 0.8839011 0.3667402 0.7128751 -0.57132006 0.6809405 -0.35872325
0.7697778 0.09742051 0.5124875 0.73999304 -0.6897191 0.44434902 0.82284707 0.7740914
0.81239885 0.3666002 0.26683405 0.4421941 0.70105743 -0.5490714 -0.74859893 0.38980553
-0.2598485 -0.50910866 0.43643504 -1.0312978 0.48817354 -0.47083086 0.28067732 -0.77107877
-0.54111886 0.6001786 0.60112786 0.5367692 0.54041266 -0.44509572 0.39702633 -0.802973
0.68108845 0.52146745 0.6044576 0.56458986 -0.43653223 0.4151862 0.85025483 0.5221693
0.6543011 0.4558792 0.5239224 0.40619206 0.9065304 -0.9076964 -0.5076346 0.55833673
-0.1507478 -0.7373928 0.4219434 -0.6146905 -0.13589343 -0.47678268 0.9952967 -0.065686345
0.5792698 -0.6886488 0.13838068 -0.5909875 -0.65631986 0.7139303 -0.7464435 0.74208724
-0.92794955 -0.2545748 -0.72008324 -0.7286504 1.1529226 -0.43091893 -0.71890354 -1.0010465
-0.65938765 -0.7650219 -0.25259247 -0.9226638 -0.6969679 0.4902853 0.7088691 -0.122606546
-1.2578654 0.86661696 -0.7388389 0.7935024 0.09527851 1.0422595 -0.37004066 0.80485904
0.33681998 -0.8454864 -0.42827392 -0.8036814 -0.57334244 0.6832263 -0.92730564 0.6994596
-0.86849844 -0.3621663 -0.5462127 -0.58950895 0.7765807 -0.6196478 -0.84599835 -0.6738848
-0.8344487 -0.7166737 -0.20746554 -0.692695 -0.6847214 0.54970163 0.76135314 -0.74219143
-0.8652069 0.81050205 -0.9193204 1.9216509 0.52281 0.9059583 -0.5298226 0.6495527
00000000: 1f3e 25bf 276b e33e c386 013f f4af 483f
00000010: 1ef3 293f 272d 47bf ebf8 113f b846 0cbf
00000020: 1936 1c3f 9435 db3e b0dc 163f 8e0b 253f
00000030: 1105 01bf 1168 343f 819c e73e 3e89 d83e
00000040: eb95 223f 5737 fc3e a604 f13e d300 013f
00000050: a108 1d3f fca8 fdbe 67dd e4be dadc 2c3f
00000060: b07a d5be 0f0c 1abf d51c 2a3f cda9 83bf
00000070: 9d1a 53bf 12ba f2be 25d9 403f 6301 09bf
00000080: 5bd6 b2bf f78f 163f e934 c63d e886 9abe
00000090: b4c3 323f 4399 b8bd 501f da3d 1db2 1bbf
000000a0: f372 66be a49e 303e c198 de3e e740 503f
000000b0: 9bee c7be b5df 193f a5ae e43e 12df 493e
000000c0: 5ae4 2e3f 7fce 993c 3812 2bbe f8ac 583f
000000d0: 018d 02be b0a3 b43e 7b07 2abf d7ae 02bf
000000e0: 78f3 953f da18 dcbe d921 023e e68f 9cbf
000000f0: 5662 9d3e aa74 01bf bd19 9e3d 6ab6 aebf
00000100: e9a2 21bf d9aa 263f abce 5b3f 14ea 203f
00000110: 3b30 c53d 0e0f cbbe bcbc 3c3f 133b dabe
00000120: 679f 8c3f 7408 e93e 1c4a d43e ecf0 2d3f
00000130: 67ad 46bf 68e8 073f ca2f 383f 270a 093f
00000140: bc6b 2d3f 6d65 3f3f c4bc 2f3f b92c 203f
00000150: 4147 0d3f 728a f8be 7404 3bbf 0e3b 0e3f
00000160: 0fcc 61bd 0c13 debe 6628 d63e 77f6 25bf
00000170: 4dc7 78bf 2c22 08bf 6773 b53e 5e69 4cbf
00000180: dfe0 14bf 4a93 193f 6c95 e83e 3917 1c3f
00000190: 9788 c13e b022 27bf 9132 273f b658 edbe
000001a0: f402 073f c6b4 093f 0915 2e3f 151b ea3e
000001b0: 0f25 1fbf cb97 313f 2f3f 023f 4065 093f
000001c0: 34b8 343f c920 203f cb80 2e3f 3b6a 0d3f
000001d0: d305 343f f931 2cbf a31c e0be 7e3e e63e
000001e0: 95a1 0cbf 61c0 11bf 93fe 343f 07e8 69bf
000001f0: f692 71bf 1da6 09bf 84f5 0f3f 6f39 f9be
00000200: 58d0 ebbe fa69 063f 5847 623f 5fc5 bb3e
00000210: fc7e 363f 0842 12bf 1e52 2e3f 93aa b7be
00000220: 2810 453f 6884 c73d 6132 033f 2f70 3d3f
00000230: 6e91 30bf b781 e33e 1ba6 523f db2a 463f
00000240: 5ff9 4f3f 05b3 bb3e 799e 883e 4467 e23e
00000250: 8078 333f f18f 0cbf 2ea4 3fbf 9794 c73e
00000260: dd0a 85be f254 02bf 6a74 df3e 9101 84bf
00000270: e2f1 f93e be10 f1be f0b4 8f3e 6b65 45bf
00000280: c486 0abf 4ea5 193f 84e3 193f b569 093f
00000290: 7c58 0a3f 96e3 e3be 0947 cb3e a38f 4dbf
000002a0: d05b 2e3f e47e 053f bcbd 1a3f f688 103f
000002b0: 2781 dfbe 4993 d43e 4daa 593f e3ac 053f
000002c0: 4780 273f 0069 e93e c71f 063f 68f8 cf3e
000002d0: 6012 683f cb5e 68bf 57f4 01bf 28ef 0e3f
000002e0: a25d 1abe c6c5 3cbf f708 d83e 5b5c 1dbf
000002f0: a627 0bbe dc1c f4be c4cb 7e3f 9086 86bd
00000300: 074b 143f 4a4b 30bf aab3 0d3e f54a 17bf
00000310: 9404 28bf 23c4 363f ec16 3fbf 6ef9 3d3f
00000320: 1a8e 6dbf a157 82be 6057 38bf d588 3abf
00000330: f892 933f 68a1 dcbe 100a 38bf 4b22 80bf
00000340: a1cd 28bf 7ad8 43bf cd53 81be b233 6cbf
00000350: 7d6c 32bf ad06 fb3e 7278 353f 2419 fbbd
00000360: bc01 a1bf 9cda 5d3f 8c24 3dbf f922 4b3f
00000370: 6121 c33d c268 853f f875 bdbe 3e0b 4e3f
00000380: ab73 ac3e cc71 58bf b846 dbbe 10be 4dbf
00000390: 92c6 12bf ebe7 2e3f e763 6dbf c90f 333f
000003a0: ea55 5ebf dc6d b9be 98d4 0bbf 0fea 16bf
000003b0: fecd 463f 3da1 1ebf 5993 58bf b783 2cbf
000003c0: 6e9e 55bf ed77 37bf d971 54be 7654 31bf
000003d0: e749 2fbf 3fb9 0c3f 0ae8 423f 4200 3ebf
000003e0: 337e 5dbf 107d 4f3f 9558 6bbf a8f8 f53f
000003f0: e0d6 053f e2ec 673f 74a2 07bf 1649 263f

project.bias f4 [64]
-0.56241554 -0.25825337 -0.78157735 -0.5444105 -0.44841123 -0.55779797 0.6715115 0.46032402
-0.7192024 0.076949805 0.08347694 -0.43061185 -0.46093634 -0.25744736 1.0565944 0.23983333
-0.5763634 0.62362754 -0.053253025 -0.7550793 0.42663988 0.17917272 0.5118626 0.66522247
0.5843156 -0.17957792 -0.2337322 -0.31687644 0.22650088 0.53437984 0.4475544 -0.11922187
0.5738321 0.70302516 0.19776095 -0.4890719 0.48869747 -0.20513979 -0.40329626 0.6888171
0.73678434 -0.49177024 -0.47325173 0.6469411 -0.4887691 0.5937371 0.16900745 0.39950606
-0.19702736 0.6594974 -0.4041833 -0.7125246 0.47707644 0.4924392 0.9900269 0.5209689
0.6321761 0.38122728 -0.012434055 0.7428573 1.0836945 -0.38310164 -0.5941385 0.6849957
00000000: 77fa 0fbf c939 84be 7415 48bf 7d5e 0bbf
00000010: 2896 e5be d9cb 0ebf 2de8 2b3f 97af eb3e
00000020: a61d 38bf dc97 9d3d f5f5 aa3d 2879 dcbe
00000030: d9ff ebbe 24d0 83be 7c3e 873f de96 753e
00000040: 8d8c 13bf 0ea6 1f3f d81f 5abd e14c 41bf
00000050: 8b70 da3e 0e79 373e 6d09 033f 054c 2a3f
00000060: b595 153f 46e3 37be 7e57 6fbe a13d a2be
00000070: d9ef 673e 1ecd 083f da25 e53e 992a f4bd
00000080: a9e6 123f 75f9 333f d981 4a3e a267 fabe
00000090: 8e36 fa3e 2a10 52be d97c cebe 5156 303f
000000a0: e69d 3c3f 4fc9 fbbe 0d4e f2be ef9d 253f
000000b0: f23f fabe 28ff 173f 4a10 2d3e 0f8c cc3e
000000c0: 8ac1 49be d2d4 283f 1df1 cebe 0368 36bf
000000d0: 5d43 f43e fe20 fc3e 6772 7d3f 385e 053f
000000e0: 4bd6 213f 3930 c33e 35b8 4bbc e52b 3e3f
000000f0: 80b6 8a3f e625 c4be 7619 18bf e15b 2f3f

rnn.weight_ih_l0 f4 [64, 32]
-0.3280955 0.5941292 0.9217214 0.52398026 0.5832297 -0.6048721 0.66784227 -0.45728558
0.39008352 0.42667058 0.7210714 0.52053714 -0.4360742 0.6534227 0.76678824 0.7009443
0.49205363 0.5049169 0.8012336 0.6695353 0.73267055 -0.6489509 -0.5179882 0.5179065
-0.17259273 -0.49911302 0.7294813 0.24676338 -0.26967624 -0.6711961 0.484764 -0.37474346
-0.4838663 -0.13907358 -0.24811627 -0.64253396 1.3131634 -0.21629132 0.7664002 0.029191252
-1.9866474 1.2474821 -0.058873683 0.9187126 0.6757891 -0.09132473 1.1361501 0.1644327
0.088203095 1.1844479 0.7334669 0.95003015 0.15437941 -0.7223205 -0.8983539 -0.036427367
-0.43668765 -0.7242581 -0.026769737 -0.22359918 0.35157126 -0.69766927 0.75447947 -0.41845956
0.6023271 -0.59786874 -0.35689703 -0.6269092 -0.81545687 0.5069523 -0.65220964 0.4951331
-0.6266385 -0.5325041 -0.6763542 -0.69476527 0.5687677 -0.6944602 -0.5467929 -0.47299507
-0.672043 -0.6971526 -0.7896631 -0.6197444 -0.66308326 0.39545304 0.6642934 -0.49192443
0.4712226 0.50306726 -0.67673224 -0.07170927 0.65881884 0.7452983 -0.5107421 0.72785366
-0.6599819 -1.0280483 -0.9059448 -0.03019692 0.7850296 0.647323 -0.8888658 0.4319818
0.39839646 0.65547216 0.466313 -0.83852696 0.34505397 -0.58277667 -0.515725 -0.8195554
-0.78790224 -0.5079007 -0.12533785 0.114486694 -0.19413173 1.050505 0.9875332 0.2072333
1.2166679 0.8834857 -0.60104495 1.176999 -0.075341955 0.15805824 -0.6613754 -1.3238204
-1.0695018 0.5979683 0.21407595 1.3831398 0.5304946 -0.76472664 0.82720315 -0.83290285
-1.2941989 0.6550138 0.25375122 0.61524063 -0.3436515 0.8195761 0.27851567 0.61079866
0.6570651 0.7457316 -0.14129959 0.56247544 0.80592895 -0.5689075 -0.634693 1.1098471
-1.4168357 -0.75203806 0.45335552 0.36967197 2.0629923 -0.5064526 0.54197544 -0.39318377
0.58322096 -0.6096742 -0.7747354 -0.56647545 -0.3010104 0.6801868 -0.71619624 0.60394734
-0.8119138 -0.6164445 -0.6104524 -0.49447882 0.68753463 -0.49568495 -0.6195379 -0.5045666
-0.60177594 -0.59913 -0.41971654 -0.67943305 -0.63962173 0.56520516 0.67070276 -0.55138016
0.6684433 0.5253619 -0.5590756 -0.1989709 0.223012 0.49503174 -0.5864733 0.56554306
0.46211928 -0.63821423 -0.39863876 -0.6793857 -0.82197165 0.6846009 -0.7215083 0.5075762
-0.4868182 -0.52426594 -0.71462125 -0.5481641 0.5176775 -0.6266028 -0.6803433 -0.47300303
-0.71621627 -0.5864976 -0.52964 -0.66334206 -0.49820396 0.5909075 0.5861769 -0.55853045
0.29615426 0.7180894 -0.58158207 0.9449532 0.78188014 0.6504759 -0.4726097 0.7137578
0.61638206 -0.48464558 -0.15867537 -0.5580476 -0.99442995 0.7018547 -0.61366 0.43478346
-0.3340861 -0.7595614 -0.7964657 -0.69574594 0.60801315 -0.488691 -0.5646177 -0.46949
-0.53353477 -0.44010714 -0.6570844 -0.5896584 -0.43827268 0.35763764 0.5278005 -0.5591681
-0.25605944 0.57538474 -0.4405917 -0.35637143 0.23497291 0.71776044 -0.37557763 0.6241683
00000000: 22fc a7be da18 183f eff5 6b3f 9223 063f
00000010: 8b4e 153f e6d8 1abf b6f7 2a3f 5621 eabe
00000020: 07b9 c73e 9174 da3e 2398 383f ec41 053f
00000030: 1e45 dfbe b646 273f 3c4c 443f 1671 333f
00000040: 74ee fb3e 3c42 013f a51d 4d3f aa66 2b3f
00000050: 4c90 3b3f a521 26bf e09a 04bf 8595 043f
00000060: 26bc 30be be8b ffbe 49bf 3a3f 8aaf 7c3e
00000070: 0113 8abe 82d3 2bbf fd32 f83e 60de bfbe
00000080: 53bd f7be 4e69 0ebe 3112 7ebe 1b7d 24bf
00000090: bd15 a83f 797b 5dbe ce32 443f 7e22 ef3c
000000a0: 764a febf 7ead 9f3f 8825 71bd c030 6b3f
000000b0: 8400 2d3f 7608 bbbd 5e6d 913f 0c61 283e
000000c0: d3a3 b43d fd9b 973f 7dc4 3b3f 2d35 733f
000000d0: a315 1e3e ffe9 38bf 85fa 65bf dd34 15bd
000000e0: 8695 dfbe fb68 39bf 354c dbbc 2ff7 64be
000000f0: 2601 b43e 749a 32bf 9125 413f 5540 d6be
00000100: 1c32 1a3f ed0d 19bf 35bb b6be 1f7d 20bf
00000110: c8c1 50bf a0c7 013f 36f7 26bf 1682 fd3e
00000120: 616b 20bf 3052 08bf 8d25 2dbf 23dc 31bf
00000130: c39a 113f 25c8 31bf 9ffa 0bbf 692c f2be
00000140: 030b 2cbf 9878 32bf 5c27 4abf 92a7 1ebf
00000150: d3bf 29bf d278 ca3e 220f 2a3f 85dd fbbe
00000160: 1744 f13e 04c9 003f 533e 2dbf 4fdc 92bd
00000170: 5aa8 283f dfcb 3e3f ffbf 02bf 9e54 3a3f
00000180: 93f4 28bf 1697 83bf 00ec 67bf 885f f7bc
00000190: b3f7 483f f6b6 253f b68c 63bf b82c dd3e
000001a0: 9ffa cb3e 06cd 273f 94c0 ee3e b4a9 56bf
000001b0: eaaa b03e da30 15bf 8e06 04bf 62ce 51bf
000001c0: f6b3 49bf c805 02bf 9158 00be 0078 ea3d
000001d0: 78ca 46be f376 863f face 7c3f f734 543e
000001e0: c6bb 9b3f 1e2c 623f 15de 19bf e7a7 963f
000001f0: e24c 9abd 05da 213e e64f 29bf f272 a9bf
00000200: 6fe5 88bf 7314 193f ba36 5b3e ba0a b13f
00000210: 7ece 073f 20c5 43bf 96c3 533f 1f39 55bf
00000220: 4fa8 a5bf fcae 273f aeeb 813e 6980 1d3f
00000230: 17f3 afbe bdcf 513f 9b99 8e3e 4d5d 1c3f
00000240: 6b35 283f 44e8 3e3f d7b0 10be 64fe 0f3f
00000250: 5c51 4e3f eca3 11bf 3e7b 22bf 780f 8e3f
00000260: df5a b5bf 9185 40bf 371e e83e a545 bd3e
00000270: 1108 0440 e1a6 01bf e7be 0a3f 624f c9be
00000280: f84d 153f 9c13 1cbf 0f55 46bf 8904 11bf
00000290: 091e 9abe b920 2e3f a358 37bf 4b9c 1a3f
000002a0: 95d9 4fbf 4fcf 1dbf 9c46 1cbf 542c fdbe
000002b0: 4502 303f 6bca fdbe 099a 1ebf 472b 01bf
000002c0: fd0d 1abf 9560 19bf 16e5 d6be 53ef 2dbf
000002d0: 40be 23bf 49b1 103f 2db3 2b3f 4027 0dbf
000002e0: 1a1f 2b3f 1e7e 063f 941f 0fbf 07bf 4bbe
000002f0: 425d 643e cd74 fd3e 1d23 16bf 6ec7 103f
00000300: e69a ec3e 0262 23bf 611a ccbe 39ec 2dbf
00000310: bc6c 52bf 0142 2f3f c5b4 38bf 84f0 013f
00000320: 3c40 f9be 4b36 06bf 6bf1 36bf 7c54 0cbf
00000330: 8386 043f 0b69 20bf fa2a 2ebf 742d f2be
00000340: f359 37bf b524 16bf 7d96 07bf c9d0 29bf
00000350: 9714 ffbe b745 173f b00f 163f dafb 0ebf
00000360: 88a1 973e b5d4 373f 90e2 14bf 74e8 713f
00000370: 4c29 483f 9785 263f e6f9 f1be d5b8 363f
00000380: 37cb 1d3f 7723 f8be cc7b 22be 35dc 0ebf
00000390: f692 7ebf c0ac 333f d218 1dbf f09b de3e
000003a0: 550d abbe 9e72 42bf 2de5 4bbf 681c 32bf
000003b0: c0a6 1b3f b535 fabe c98a 10bf fe60 f0be
000003c0: bc95 08bf b955 e1be af36 28bf daf3 16bf
000003d0: 4765 e0be 481c b73e ef1d 073f a425 0fbf
000003e0: 391a 83be 6a4c 133f 3c95 e1be 5176 b6be
000003f0: bd9c 703e 26bf 373f b64b c0be 7ec9 1f3f

rnn.weight_hh_l0 f4 [64, 64]
-0.8477642 -0.59148675 -0.54470295 0.57900673 -1.0739731 0.7961159 -0.49635497 -0.5484387
0.6611622 -0.5440922 -0.53588283 0.44504604 -0.7132142 -0.05735381 0.45618802 0.4893583
0.8039831 0.31544468 0.727619 0.56467354 -0.5652112 0.87102014 -0.5433203 -0.49199298
0.42183965 0.6358401 -0.66836536 0.89180946 0.54996616 -0.040887687 0.6957256 -0.52283424
-0.73067224 -0.67266345 0.5485074 0.53806496 -0.645217 -0.5360074 -0.44677463 -0.5385883
-1.2283577 0.6074554 -0.40941086 -0.75358236 -0.57861704 0.66939944 -0.5380386 0.5357955
0.22724175 -0.40993634 0.8642412 -0.42440358 -0.6011757 -0.6032015 0.720623 -0.7255277
0.38866672 0.6825612 0.9797253 0.011755961 -0.5309044 -0.27529734 0.7391834 0.6891927
-1.2091289 -1.4969627 0.3667686 1.3662663 -1.6604837 1.3547057 0.2668328 0.8958435
1.302623 -1.316811 0.56309193 -0.74629706 -1.4803637 1.1834671 -0.8615608 -1.1929069
1.660049 1.2976875 1.5695658 -0.91012263 -1.2988999 1.5659063 0.8381462 0.9915598
-0.90803677 -0.543963 -1.5413842 -0.3160136 -0.63599044 -1.6300828 1.7378697 -1.3699775
-1.6785419 -1.6333555 1.1733735 1.5572473 0.9275887 -1.7264695 0.88032746 -1.301566
-1.8980151 -0.6322631 0.97631073 -1.6055574 0.3175178 1.9507028 0.68006074 -1.0863308
-1.4944198 0.99613416 1.5513616 1.2376603 -1.422387 0.29726788 -0.06174269 -1.5507231
-1.093549 1.6720921 1.7366402 1.3542 1.2622538 1.2273442 1.4747627 1.6291149
-0.30731264 0.461629 0.50391513 -0.5925921 -0.0439827 -0.5802462 0.6887319 0.7965732
-0.47521183 0.6734018 0.69986176 -0.5970353 0.5597499 0.695801 -0.75009114 -0.8609644
-0.30646345 0.6936277 -0.26611125 -0.65034777 0.59037197 -0.49833447 0.65467817 0.7709836
-0.7452547 -0.7309255 0.32662123 -0.2722352 -0.6696656 -0.8648717 -0.44250628 0.48358288
0.5159212 0.63357383 -0.6724511 -0.42494977 0.52825993 0.52751553 0.84095186 0.5095378
-0.016292423 -0.65934175 0.8449161 0.38435394 0.6920783 -0.6037844 0.8145865 -0.83516234
-0.65096444 0.72653 -0.115165085 0.7085622 0.5377608 0.5660721 -0.67300874 0.61892426
-0.8496379 -0.22128817 -0.14222154 0.6639087 0.67973197 0.71420616 -0.5362562 -0.32665268
0.7882161 -0.077763855 0.72623754 -0.8919936 1.9406667 -0.67262995 0.846072 0.06506966
-0.6959466 0.5115064 0.252442 -0.52332026 1.3560027 -0.030260462 -0.86197656 -0.21733315
-0.8076028 -0.6710483 -1.9231408 -0.46913525 1.165903 -0.39420798 0.82185376 0.32710516
-0.45946237 -0.6399735 0.8116513 -1.0860046 -0.49290115 -0.10930047 -0.8729047 0.9649068
0.546056 0.32186076 -0.32722825 0.13408042 0.80859673 0.50737476 0.09146294 0.942022
0.6987455 -0.47751218 -0.1345821 0.82437676 0.47804025 -0.4699014 0.3469778 -0.36640722
-0.850215 0.69725406 -1.0498798 0.6286301 0.63181466 0.5364041 -0.6973894 1.4737582
0.100584835 -0.58313686 -0.3186276 0.2040283 0.30782256 0.17345414 -0.55693567 -0.48769784
00000000: 1307 59bf ad6b 17bf a771 0bbf c939 143f
00000010: f377 89bf 40ce 4b3f 3d22 febe 7b66 0cbf
00000020: ed41 293f a049 0bbf 9e2f 09bf 13dd e33e
00000030: 3595 36bf d4eb 6abd 7a91 e93e 2c8d fa3e
00000040: d6d1 4d3f f781 a13e 3d45 3a3f 728e 103f
00000050: aeb1 10bf 2dfb 5e3f 0a17 0bbf 81e6 fbbe
00000060: 5efb d73e 6bc6 223f fe19 2bbf a04d 643f
00000070: 95ca 0c3f d979 27bd 131b 323f 77d8 05bf
00000080: 560d 3bbf ac33 2cbf fb6a 0c3f a0be 093f
00000090: f12c 25bf c837 09bf a5bf e4be ece0 09bf
000000a0: d33a 9dbf 3282 1b3f 4d9e d1be c6ea 40bf
000000b0: 3f20 14bf c35d 2b3f e6bc 09bf e529 093f
000000c0: 10b2 683e 2de3 d1be e93e 5d3f 6d4b d9be
000000d0: a7e6 19bf 6a6b 1abf c07a 383f 2fbc 39bf
000000e0: 53ff c63e 55bc 2e3f 47cf 7a3f 139c 403c
000000f0: 5ae9 07bf c6f3 8cbe 203b 3d3f ef6e 303f
00000100: bcc4 9abf 799c bfbf 18c9 bb3e d0e1 ae3f
00000110: bb8a d4bf ff66 ad3f 4f9e 883e 0056 653f
00000120: 5abc a63f 438d a8bf cb26 103f 530d 3fbf
00000130: 8f7c bdbf da7b 973f 408f 5cbf 2cb1 98bf
00000140: 7c7c d43f a01a a63f 88e7 c83f ccfd 68bf
00000150: 5a42 a6bf 9e6f c83f c090 563f ddd6 7d3f
00000160: 1975 68bf 2941 0bbf 144c c5bf 89cc a1be
00000170: 45d0 22bf 8ea6 d0bf 8472 de3f 6c5b afbf
00000180: 76da d6bf cb11 d1bf 1a31 963f e153 c73f
00000190: 7476 6d3f f4fc dcbf 245d 613f b799 a6bf
000001a0: 29f2 f2bf ffdb 21bf 80ef 793f e882 cdbf
000001b0: b191 a23e a1b0 f93f 7618 2e3f e30c 8bbf
000001c0: 2649 bfbf a602 7f3f 0493 c63f a76b 9e3f
000001d0: c710 b6bf 7f33 983e e7e5 7cbd 187e c6bf
000001e0: 6af9 8bbf 1d07 d63f 3a4a de3f 6d56 ad3f
000001f0: 8891 a13f 9d19 9d3f 06c5 bc3f d686 d03f
00000200: 1558 9dbe a35a ec3e 9500 013f 1eb4 17bf
00000210: 3427 34bd 048b 14bf bc50 303f 39ec 4b3f
00000220: f74e f3be 0f64 2c3f 242a 333f 4ed7 18bf
00000230: c54b 0f3f 0420 323f f905 40bf 2a68 5cbf
00000240: c7e8 9cbe 9691 313f bc3f 88be 317d 26bf
00000250: 9e22 173f b225 ffbe fd98 273f 2e5f 453f
00000260: 03c9 3ebf ef1d 3bbf e63a a73e 6a62 8bbe
00000270: 346f 2bbf 3b68 5dbf 2f90 e2be 2d98 f73e
00000280: 6913 043f e531 223f c125 2cbf 0493 d9be
00000290: 0b3c 073f 420b 073f 9f48 573f 1271 023f
000002a0: b077 85bc 9fca 28bf 6c4c 583f 0aca c43e
000002b0: 0b2c 313f 9d91 1abf be88 503f 33cd 55bf
000002c0: 9ba5 26bf dffd 393f acdb ebbd 5564 353f
000002d0: b1aa 093f 1aea 103f 4d4a 2cbf d271 1e3f
000002e0: df81 59bf 5e99 62be 86a2 11be ecf5 293f
000002f0: ea02 2e3f 37d6 363f 1648 09bf 053f a7be
00000300: 88c8 493f a842 9fbd b4ea 393f b159 64bf
00000310: c467 f83f 7a31 2cbf 2d98 583f 3e43 853d
00000320: 8e29 32bf 15f2 023f 1440 813e 51f8 05bf
00000330: 7f91 ad3f cae4 f7bc 7faa 5cbf 958c 5ebe
00000340: 0fbf 4ebf d2c9 2bbf 7a29 f6bf 7f32 f0be
00000350: 4f3c 953f a1d5 c9be 0265 523f 547a a73e
00000360: a73e ebbe 4ed5 23bf 61c8 4f3f 3302 8bbf
00000370: 8a5d fcbe edd8 dfbd af76 5fbf 2204 773f
00000380: 53ca 0b3f efca a43e 768a a7be 614c 093e
00000390: 3200 4f3f 50e3 013f ec50 bb3d 5b28 713f
000003a0: fce0 323f 7a7c f4be e4cf 09be 5b0a 533f
000003b0: b1c1 f43e eb96 f0be 13a7 b13e ba99 bbbe
000003c0: b1a7 59bf 3e7f 323f 7662 86bf e7ed 203f
000003d0: 9bbe 213f c751 093f 1d88 32bf 1ca4 bc3f
000003e0: 6cff cd3d 7548 15bf 2823 a3be cbec 503e
000003f0: eb9a 9d3e f69d 313e 5693 0ebf 88b3 f9be

rnn.bias_ih_l0 f4 [64]
-0.7228027 -1.0203024 0.53281647 0.8596517 -0.65643126 0.6262424 0.47628424 0.06855454
0.7656699 -0.7569252 0.38641363 -0.534635 -0.796115 0.47790542 -0.4631618 -0.100550435
0.60609365 0.66934425 0.5641919 -0.40283224 -0.8280443 0.5809155 0.42446846 0.30710217
-0.57675403 -0.51759315 -0.62361264 0.853317 -0.32255623 -0.07011702 1.0658516 -0.79353034
-0.71739876 -0.69040245 0.5931399 1.0119677 0.39974496 -0.7090474 0.38937554 -0.78194857
-0.73363453 -0.40395063 0.6315559 -0.7552028 0.28570202 0.9893264 0.308716 -0.5162905
-0.5678083 0.5483156 0.13252355 0.620144 -0.72273594 0.4545906 0.7347695 -0.80437386
-0.3472903 0.5415574 0.7550888 0.45330483 -0.06750678 0.14796636 0.7772704 0.6423745
00000000: 9909 39bf 4599 82bf a966 083f 2212 5c3f
00000010: e10b 28bf 6c51 203f 87db f33e 5366 8c3d
00000020: f102 443f dac5 41bf 02d8 c53e d7dd 08bf
00000030: 31ce 4bbf 05b0 f43e 8b23 edbe 63ed cdbd
00000040: f428 1b3f 255a 2b3f e16e 103f 0740 cebe
00000050: b6fa 53bf e1b6 143f ee53 d93e 7f3c 9d3e
00000060: 27a6 13bf fc80 04bf 14a5 1fbf fc72 5a3f
00000070: 1726 a5be 8399 8fbd d36d 883f ce24 4bbf
00000080: 72a7 37bf 37be 30bf 04d8 173f 2888 813f
00000090: 5fab cc3e 2184 35bf 3b5c c73e c82d 48bf
000000a0: 79cf 3bbf 9ed2 cebe a6ad 213f f854 41bf
000000b0: 8947 923e 7f44 7d3f 0610 9e3e 9d2b 04bf
000000c0: e25b 11bf 695e 0c3f 41b4 073e c2c1 1e3f
000000d0: 3905 39bf 19c0 e83e db19 3c3f 72eb 4dbf
000000e0: 09d0 b1be 81a3 0a3f 804d 413f 9217 e83e
000000f0: ff40 8abd 7e84 173e 31fb 463f a872 243f

rnn.bias_hh_l0 f4 [64]
-0.7502434 -1.1546687 0.35811004 0.8450146 -0.76547945 0.5791679 0.56219846 0.1571664
0.6718351 -0.6299796 0.44970924 -0.43326885 -0.8321605 0.45955098 -0.343142 -0.23500644
0.6973396 0.54408675 0.69241536 -0.37382337 -0.78085846 0.578592 0.46678922 0.45219946
-0.3737596 -0.4855842 -0.67861587 0.7163742 -0.4296093 -0.121143036 0.88712513 -0.68586195
-0.69869715 -0.8030414 0.5992879 0.88846564 0.5565246 -0.8290312 0.49757984 -0.8158319
-0.77738476 -0.24891731 0.44989485 -0.66231483 0.191732 0.987594 0.27609554 -0.45301485
-0.390596 0.44616395 0.06734171 0.5565005 -0.6006582 0.38423556 0.686963 -0.876987
-0.5287906 0.7254978 0.56746715 0.39423585 0.03253725 0.19818528 0.73163664 0.6642079
00000000: f40f 40bf 2fcc 93bf 335a b73e e052 583f
00000010: 76f6 43bf 5944 143f 3dec 0f3f 3bf0 203e
00000020: 63fd 2b3f 5846 21bf 4a40 e63e 6ad5 ddbe
00000030: 7808 55bf 444a eb3e 4fb0 afbe 87a5 70be
00000040: d984 323f 4549 0b3f 2242 313f c765 bfbe
00000050: 57e6 47bf 9b1e 143f fffe ee3e b086 e73e
00000060: 6b5d bfbe 7e9e f8be c5b9 2dbf 4d64 373f
00000070: c0f5 dbbe d719 f8bd a21a 633f a694 2fbf
00000080: d1dd 32bf 1f94 4dbf ef6a 193f 7c72 633f
00000090: 6578 0e3f 643b 54bf c9c2 fe3e 5cda 50bf
000000a0: b002 47bf 2ee4 7ebe 9e58 e63e 778d 29bf
000000b0: 6555 443e f6d2 7c3f 655c 8d3e 90f1 e7be
000000c0: 33fc c7be 9a6f e43e 73ea 893d d176 0e3f
000000d0: bcc4 19bf 86ba c43e cfdc 2f3f 3882 60bf
000000e0: d25e 07bf 39ba 393f 8745 113f 48d9 c93e
000000f0: c845 053d 15f1 4a3e 8a4c 3b3f 8709 2a3f

rnn.weight_ih_l1 f4 [64, 64]
-0.6377671 -0.5024541 -0.61751926 0.52437335 -0.5516422 0.7081252 -0.51809394 -0.70649344
0.6840715 -0.48506016 -0.6938304 0.6847795 -0.70961004 -0.5011245 0.5176423 0.5508877
0.64910275 -0.54461557 0.54105085 0.64569366 -0.5532174 0.650347 -0.7014988 -0.68936104
0.6371748 0.6483985 -0.6317556 0.5910994 0.6309236 0.64472616 0.59552735 -0.6220398
-0.5919148 -0.6289199 0.6441598 0.56422156 -0.62993395 -0.49960026 -0.6805527 -0.66147596
-0.63190484 0.6801379 -0.66377735 -0.684174 -0.5352696 0.61452484 -0.67050797 0.67649436
0.5243152 -0.7115977 0.49836835 -0.706849 -0.5879135 -0.5596047 0.53039056 -0.6657174
0.6872142 0.64626694 0.6740152 -0.62092537 -0.68074024 -0.6211756 0.494275 0.53412634
-0.60057986 0.29789126 0.91040534 -0.19184251 -0.5389972 -0.21090625 0.8824308 0.9056555
-0.2304928 0.2294968 0.82608557 -0.8519617 -0.0345549 0.6700651 -0.78761387 -0.8261185
0.12996578 0.76844096 0.45118502 -0.84988934 0.16945812 0.182214 0.8596494 0.7617799
-0.8530971 -0.9973592 -0.30177903 0.37297696 -0.74369156 -0.7355028 0.30839404 0.21260732
-0.18796358 0.18440357 -0.22603408 -0.062499363 0.81831783 0.051215313 0.77196956 0.30461106
-0.5111141 -0.7522922 0.90811 -0.037004888 0.7720048 0.20820518 0.87114006 -0.74593276
-0.7747622 0.8503379 0.3554534 0.750373 -0.040149104 0.68247926 -0.20579338 -0.14981726
-0.8584454 0.22981708 0.37313554 0.7911867 0.9613155 0.8325827 -0.07505869 0.08454263
-0.7774026 -0.5973866 -0.5179545 0.61718774 -1.222611 0.59776014 -0.54322624 -0.43685976
0.70499456 -0.74924326 -0.44413874 0.46175388 -0.6066571 -0.053191785 0.5251171 0.26534733
0.71338516 0.5156603 0.98218185 0.38719442 -0.54189867 0.6672623 -0.46562293 -0.39715555
0.5803264 0.46315855 -0.7120497 0.70240676 0.45766944 -0.3942036 0.82980525 -0.7017873
-0.66009986 -0.6796742 0.65969163 0.7306838 -0.5692293 -0.7427896 -0.4228408 -0.5867862
-1.2295783 0.3957962 -0.47493526 -0.5976656 -0.6553682 0.9090402 -0.43968594 0.34298897
-0.029070875 -0.4896057 0.8932359 -0.30363235 -0.6250061 -0.64796495 0.6804206 -0.72256273
0.27910748 0.9150035 1.1045333 -0.03223075 -0.3361659 -0.04058877 0.6219666 0.91878057
-1.0341098 -0.5430486 -0.5464362 0.48317173 -0.6589905 0.5535075 -0.71065474 -0.44966522
0.57425654 -0.58184344 -0.67620975 0.5788243 -0.74177104 -0.5230591 0.603025 0.6521462
0.56064576 -0.33244753 0.66311395 0.5800818 -0.5580828 0.47828114 -0.7077896 -0.5910421
0.65885794 0.6846775 -0.6092963 0.62139946 0.5470517 0.3417005 0.5146441 -0.48907962
-0.56502324 -0.57303464 0.51857644 0.5918851 -0.68395525 -0.5298961 -0.6896246 -0.53702193
-0.7490503 0.5258584 -0.55563647 -0.69703114 -0.60363615 0.6888817 -0.5755889 0.50354266
0.6063434 -0.6459536 0.67237765 -0.5272271 -0.615229 -0.5848101 0.5161331 -0.60637003
0.5834679 0.61345774 0.6513622 -0.4870954 -0.5169996 -0.46522024 0.6524512 0.6626771
00000000: b444 23bf d5a0 00bf be15 1ebf 553d 063f
00000010: 6c38 0dbf b147 353f cea1 04bf c1dc 34bf
00000020: 4f1f 2f3f ce59 f8be de9e 31bf b64d 2f3f
00000030: 01a9 35bf b249 00bf 3584 043f fa06 0d3f
00000040: 992b 263f ed6b 0bbf 4f82 0a3f 2e4c 253f
00000050: a89f 0dbf 247d 263f 6d95 33bf f779 30bf
00000060: e31d 233f 72fd 253f bcba 21bf 4a52 173f
00000070: 3684 213f c60c 253f 7b74 183f 003e 1fbf
00000080: ba87 17bf e500 21bf a8e7 243f d370 103f
00000090: 5a43 21bf 9bcb ffbe b438 2ebf 7d56 29bf
000000a0: 84c4 21bf 841d 2e3f 50ed 29bf 0726 2fbf
000000b0: 6e07 09bf 8051 1d3f 69a6 2bbf bc2e 2d3f
000000c0: 8539 063f 442b 36bf 232a ff3e 0ef4 34bf
000000d0: 8081 16bf 4142 0fbf adc7 073f 756c 2abf
000000e0: 45ed 2f3f c071 253f 438c 2c3f f7f4 1ebf
000000f0: fe44 2ebf 5d05 1fbf 9d11 fd3e 81bc 083f
00000100: 9abf 19bf 3485 983e 5310 693f 5d72 44be
00000110: b8fb 09bf cff7 57be fce6 613f 0ad9 673f
00000120: 4e06 6cbe 3601 6b3e 587a 533f 291a 5abf
00000130: 7089 0dbd 6389 2b3f 10a1 49bf 817c 53bf
00000140: c015 053e 8cb8 443f b901 e73e 5992 59bf
00000150: 6e86 2d3e 4f96 3a3e fc11 5c3f 0204 433f
00000160: 9264 5abf ef52 7fbf c882 9abe d6f6 be3e
00000170: 9262 3ebf e949 3cbf d3e5 9d3e bcb5 593e
00000180: 8679 40be 4ad4 3c3e 7a75 67be 55ff 7fbd
00000190: 477d 513f 26c7 513d cc9f 453f fbf5 9b3e
000001a0: 60d8 02bf 3996 40bf e679 683f 7092 17bd
000001b0: 1ba2 453f bd33 553e 0903 5f3f 73f5 3ebf
000001c0: d156 46bf bfaf 593f fdfd b53e 7218 403f
000001d0: 6373 24bd f6b6 2e3f 80bb 52be b269 19be
000001e0: 14c3 5bbf 2b55 6b3e 9f0b bf3e 368b 4a3f
000001f0: c618 763f 2424 553f 5fb8 99bd b024 ad3d
00000200: db03 47bf 54ee 18bf ab98 04bf 0400 1e3f
00000210: 847e 9cbf cf06 193f e010 0bbf 15ac dfbe
00000220: 867a 343f 68ce 3fbf 2766 e3be 016b ec3e
00000230: e14d 1bbf a1df 59bd 136e 063f 9bdb 873e
00000240: 69a0 363f 5002 043f 4570 7b3f 593e c63e
00000250: dfb9 0abf b4d1 2a3f 2166 eebe f957 cbbe
00000260: 4590 143f 1e23 ed3e e448 36bf eed0 333f
00000270: a653 ea3e 0ed5 c9be 1e6e 543f 55a8 33bf
00000280: 4efc 28bf 21ff 2dbf 8de1 283f 180e 3b3f
00000290: 03b9 11bf 7627 3ebf 977e d8be 9f37 16bf
000002a0: d262 9dbf cda5 ca3e b72a f3be 9d00 19bf
000002b0: 36c6 27bf dcb6 683f 841e e1be 409c af3e
000002c0: 0b26 eebc 99ad fabe 1cab 643f b375 9bbe
000002d0: 6600 20bf 08e1 25bf 0b30 2e3f dff9 38bf
000002e0: 2de7 8e3e ab3d 6a3f 5961 8d3f 6404 04bd
000002f0: f01d acbe 6940 26bd 3439 1f3f 3435 6b3f
00000300: b65d 84bf 3c05 0bbf 3ee3 0bbf 4962 f73e
00000310: 9ab3 28bf abb2 0d3f 78ed 35bf 853a e6be
00000320: 7a02 133f b1f3 14bf 151c 2dbf d42d 143f
00000330: b5e4 3dbf 34e7 05bf d95f 1a3f 0ef3 263f
00000340: 7b86 0f3f 9036 aabe d6c1 293f 3e80 143f
00000350: 84de 0ebf 44e1 f43e b331 35bf 894e 17bf
00000360: eaaa 283f 0647 2f3f d8fa 1bbf 0914 1f3f
00000370: 950b 0c3f 5ef3 ae3e b7bf 033f a568 fabe
00000380: 5da5 10bf 66b2 12bf 6dc1 043f c885 173f
00000390: b117 2fbf 45a7 07bf 3d8b 30bf 457a 09bf
000003a0: c3c1 3fbf a89e 063f 313e 0ebf a270 32bf
000003b0: e687 1abf 8d5a 303f cb59 13bf 2ce8 003f
000003c0: 5239 1b3f 375d 25bf f120 2c3f 5bf8 06bf
000003d0: a67f 1dbf 1db6 15bf 4d21 043f 113b 1bbf
000003e0: 275e 153f 910b 1d3f acbf 263f 9164 f9be
000003f0: 165a 04bf 5931 eebe 0b07 273f 35a5 293f

rnn.weight_hh_l1 f4 [64, 64]
-0.69882023 0.85233074 -0.7110369 -0.5214306 -0.75777864 0.59453917 0.6294976 -0.6934044
0.5121318 -0.8910787 0.66875273 -0.587254 0.6348009 0.6940802 0.50349134 -0.66275805
-0.58431184 -0.60162455 0.5161172 0.60425085 -0.69183344 0.7057174 -0.61940473 -0.62906194
-0.47534448 -0.70555437 0.7250914 0.62643653 -0.64010495 -0.4925343 0.4617011 0.5855467
-0.5742671 -0.61332935 -0.65636635 -0.72529507 -0.48752913 0.71356815 -0.6205307 -0.52844936
-0.55125743 -0.58380926 -0.607712 -0.596914 -0.9167279 0.567146 0.7162948 -0.67320883
1.5463804 -0.56103563 -0.533451 0.13991119 -0.334263 -0.4675199 0.60868245 -0.6098807
-0.48604935 -0.6540326 0.5345917 -0.6572534 0.5697393 0.5425658 -0.5610835 -0.7076553
-0.13909991 -0.025698816 0.46110353 0.24689212 -0.08520913 -0.84390175 -0.43948358 0.69054097
-0.6933052 0.5853168 -0.21243125 0.39374107 -0.09410717 -0.2523412 -0.7194753 -0.15718853
0.33591715 -0.06809061 -0.7777052 -0.80583686 0.6203059 -0.2828821 0.8705176 0.7051562
0.6950686 0.76626307 0.3862203 -0.6504032 0.6762018 0.64029646 -0.80724204 -0.653766
0.59563226 0.51581055 0.7179582 -0.031900536 0.21782184 -0.017402437 0.946246 0.21594487
0.7140245 0.39233392 0.47872534 0.6852024 -0.37154475 -0.7822721 -0.4290908 0.69245976
0.5570913 0.82586527 0.8321444 -0.7701098 0.59639037 0.6902253 0.12442886 0.089809276
0.33173895 0.53443855 -0.6385535 0.6283344 -0.7391867 -0.64483935 0.5672588 0.67898834
-1.1694031 1.2483938 -0.7272606 -0.61917144 -1.1406115 0.61073005 0.9548565 -0.27509373
0.46976957 -0.8163898 0.53789467 -0.59911597 0.63706225 0.37777176 0.49856287 -0.7421284
-0.6058996 -0.9302117 0.43734574 0.5494265 -0.66514045 0.89947164 -0.41248393 -0.32223585
-0.25324208 -0.6510165 0.6778801 0.5213621 -0.5715071 -0.4916058 -0.4445431 0.6617654
-0.4778602 -0.42784214 -0.17566694 -0.79018945 -0.6246661 0.6475344 -0.59491545 -0.64339715
-0.2342568 -0.6051289 -0.6262203 -0.48028252 -1.4589666 0.40787354 0.71917415 -0.48415187
0.2766038 -0.27963004 -0.4348587 -0.5250897 0.64614415 -0.5091353 1.104724 -0.43634415
-0.63312656 -0.40278587 0.54145557 -0.4770658 0.5200855 0.55186546 -0.53676033 -0.5250943
-0.65968865 0.82811517 -0.68658066 -0.7067066 -0.72379786 0.45487505 0.92100585 -0.3891168
0.65701324 -0.67620033 0.66053605 -0.6489434 0.74561745 0.5733548 0.55303055 -0.5865757
-0.5334166 -0.6807636 0.51787 0.56410843 -0.49987853 0.8021189 -0.5328719 -0.49678478
-0.5291191 -0.5810202 0.5275772 0.65172523 -0.65131325 -0.5399851 0.3812915 0.5367646
-0.46424136 -0.4075721 -0.42746326 -0.74325186 -0.681071 0.536372 -0.6678258 -0.5114733
-0.49031556 -0.61321825 -0.57211286 -0.53168297 -1.169886 0.5469353 0.70519394 -0.46857625
0.73684746 -0.6069004 -0.5639655 -0.046188813 0.04105049 -0.6521991 0.7125774 -0.5744268
-0.5042349 -0.53342533 0.50476134 -0.5892291 0.60467875 0.5922379 -0.5277179 -0.6710849
00000000: e2e5 32bf 5932 5a3f 8406 36bf 7a7c 05bf
00000010: c8fd 41bf b833 183f c126 213f f382 31bf
00000020: 121b 033f bc1d 64bf 6133 2b3f 4756 16bf
00000030: 5082 223f 3daf 313f cfe4 003f 83aa 29bf
00000040: 7695 15bf 1104 1abf 4220 043f 2fb0 1a3f
00000050: ff1b 31bf e5a9 343f 4f91 1ebf 340a 21bf
00000060: 5a60 f3be 369f 34bf 979f 393f 255e 203f
00000070: ebdd 23bf 752d fcbe 1664 ec3e 63e6 153f
00000080: 2b03 13bf 2703 1dbf a007 28bf f0ac 39bf
00000090: 6b9d f9be 67ac 363f 1adb 1ebf 7548 07bf
000000a0: 351f 0dbf 8674 15bf 0393 1bbf 5bcf 18bf
000000b0: aeae 6abf 7b30 113f 195f 373f 6a57 2cbf
000000c0: cbef c53f 08a0 0fbf 3f90 08bf e144 0f3e
000000d0: 8524 abbe c55e efbe 9dd2 1b3f 2421 1cbf
000000e0: 76db f8be ae6e 27bf 00db 083f c241 28bf
000000f0: 6fda 113f 98e5 0a3f 2ba3 0fbf e628 35bf
00000100: 3570 0ebe 5386 d2bc c315 ec3e 4ad1 7c3e
00000110: 2082 aebd f209 58bf fe03 e1be 4bc7 303f
00000120: 737c 31bf 52d7 153f 9487 59be 6e98 c93e
00000130: 43bb c0bd de32 81be 892f 38bf 08f6 20be
00000140: 55fd ab3e 1773 8bbd b017 47bf 534b 4ebf
00000150: 5ecc 1e3f ecd5 90be 3eda 5e3f 1e85 343f
00000160: 04f0 313f d129 443f abbe c53e d380 26bf
00000170: 901b 2d3f 78ea 233f 6aa7 4ebf 355d 27bf
00000180: 5b7b 183f 290c 043f 1ccc 373f 23aa 02bd
00000190: b00c 5f3e 8e8f 8ebc 2e3d 723f a720 5d3e
000001a0: 4fca 363f fedf c83e 7d1b f53e 6d69 2f3f
000001b0: 1d3b bebe fc42 48bf cab1 dbbe 0b45 313f
000001c0: 899d 0e3f e86b 533f 6a07 553f ea25 45bf
000001d0: 0aad 183f 9bb2 303f 8fd4 fe3d eded b73d
000001e0: b0d9 a93e f7d0 083f 3e78 23bf 86da 203f
000001f0: 573b 3dbf 3114 25bf df37 113f 2ed2 2d3f
00000200: 00af 95bf 5ecb 9f3f c02d 3abf 0582 1ebf
00000210: 8fff 91bf ce58 1c3f 7a71 743f 16d9 8cbe
00000220: a385 f03e ecfe 50bf 77b3 093f aa5f 19bf
00000230: 8316 233f 4d6b c13e a243 ff3e 20fc 3dbf
00000240: 3c1c 1bbf 5b22 6ebf c8eb df3e 37a7 0c3f
00000250: a546 2abf c643 663f 1831 d3be 19fc a4be
00000260: f2a8 81be 04a9 26bf 8d89 2d3f fd77 053f
00000270: 4a4e 12bf c1b3 fbbe 279b e3be 7569 293f
00000280: 18aa f4be 200e dbbe 09e2 33be db49 4abf
00000290: 1eea 1fbf d0c4 253f 614c 18bf adb5 24bf
000002a0: 04e1 6fbe bae9 1abf f94f 20bf 97e7 f5be
000002b0: 6bbf babf cdd4 d03e cc1b 383f c1e2 f7be
000002c0: 039f 8d3e ab2b 8fbe cda5 debe 476c 06bf
000002d0: b469 253f b156 02bf 9967 8d3f 8068 dfbe
000002e0: 9514 22bf f339 cebe d59c 0a3f f841 f4be
000002f0: 5324 053f 0e47 0d3f 2069 09bf 946c 06bf
00000300: 5be1 28bf 5bff 533f c0c3 2fbf b9ea 34bf
00000310: d14a 39bf 62e5 e83e 0ac7 6b3f 513a c7be
00000320: 0532 283f 771b 2dbf e418 293f 2821 26bf
00000330: c9e0 3e3f 61c7 123f 6993 0d3f d329 16bf
00000340: fe8d 08bf 8646 2ebf 2193 043f 6969 103f
00000350: 14f0 ffbe aa57 4d3f 4b6a 08bf 935a febe
00000360: 5974 07bf bdbd 14bf 4d0f 073f 77d7 263f
00000370: 77bc 26bf 773c 0abf a438 c33e 6869 093f
00000380: 0bb1 edbe 4aad d0be 77dc dabe c145 3ebf
00000390: ab5a 2ebf ad4f 093f a2f6 2abf eaef 02bf
000003a0: a40a fbbe dffb 1cbf fd75 12bf 601c 08bf
000003b0: d3be 95bf f403 0c3f 9787 343f 3ae9 efbe
000003c0: 09a2 3c3f d35d 1bbf 0b60 10bf 7b30 3dbd
000003d0: 8f24 283d 85f6 26bf 796b 363f a20d 13bf
000003e0: 8a15 01bf 908e 08bf 0a38 013f b8d7 16bf
000003f0: 3acc 1a3f e79c 173f 8518 07bf 38cc 2bbf

rnn.bias_ih_l1 f4 [64]
-0.58922166 0.8928558 -0.50546247 -0.57066643 -0.7265819 -0.55177844 0.6797991 0.6037061
-0.50894636 -0.6611632 0.42190197 -0.49891752 0.334185 0.11997839 -0.6321266 -0.39033237
-0.5341125 -0.68052757 -0.09593638 -0.6372604 -0.5514079 0.6260983 0.6965433 0.69488066
0.64393973 -0.9506903 0.052883085 -0.7919055 -0.8497719 0.6778465 -0.4016119 -0.5962939
0.7361588 0.7139363 0.54920465 -0.58026415 -0.4199004 0.21983925 0.5764198 -0.41348824
0.6580324 -0.57720107 -0.5369309 0.6194885 -0.5281843 -0.6264742 0.74052316 0.8162771
-0.18647483 0.64917165 -0.6875443 -0.47676706 0.6814466 0.4116728 0.63463724 0.46881765
-0.35200527 0.62792677 0.58205724 0.73941946 -0.6839891 -0.3522429 -0.58603215 0.5813806
00000000: 3bd7 16bf 3392 643f fd65 01bf 3217 12bf
00000010: 4501 3abf 5a41 0dbf 5007 2e3f 7c8c 1a3f
00000020: 4f4a 02bf fe41 29bf 8903 d83e 1e72 ffbe
00000030: 4c1a ab3e 3bb7 f53d 0dd3 21bf a5d9 c7be
00000040: 99bb 08bf 0e37 2ebf 4b7a c4bd 7f23 23bf
00000050: 1129 0dbf fa47 203f a950 323f b3e3 313f
00000060: 3cd9 243f 7160 73bf ef9b 583d 52ba 4abf
00000070: a78a 59bf 5987 2d3f 13a0 cdbe b8a6 18bf
00000080: e774 3c3f 88c4 363f ad98 0c3f 318c 14bf
00000090: 2ffd d6be 8a1d 613e 3f90 133f bbb4 d3be
000000a0: d074 283f 73c3 13bf 4e74 09bf cc96 1e3f
000000b0: 1637 07bf 9d60 20bf ed92 3d3f 89f7 503f
000000c0: 42f3 3ebe 1d30 263f e702 30bf d01a f4be
000000d0: 4973 2e3f c7c6 d23e 9677 223f de08 f03e
000000e0: 093a b4be cfbf 203f b401 153f 984a 3d3f
000000f0: e919 2fbf 2e59 b4be 3406 16bf 5cd5 143f

rnn.bias_hh_l1 f4 [64]
-0.4919101 0.84089774 -0.5047209 -0.5418295 -0.5951978 -0.43094647 0.56863683 0.63639724
-0.71240413 -0.67757666 0.3329515 -0.69764894 0.17330685 0.1215304 -0.52528745 -0.3680992
-0.6739329 -0.52459055 -0.08945317 -0.5082738 -0.48896602 0.637724 0.5725339 0.6693582
0.7099302 -0.8456915 0.08062102 -0.86421293 -0.7033861 0.69405335 -0.41152045 -0.6824915
0.58715564 0.7238526 0.5362621 -0.6241879 -0.45934442 0.21613622 0.63295466 -0.44543296
0.47888204 -0.63396716 -0.53923965 0.53951967 -0.65113556 -0.62376446 0.5974125 0.6322761
-0.2258493 0.50455844 -0.7841051 -0.67404383 0.59872216 0.4576493 0.7107846 0.5829699
-0.5096491 0.5358053 0.7580555 0.7871865 -0.6990403 -0.5540528 -0.46325132 0.6810265
00000000: a4db fbbe 1345 573f 6435 01bf 57b5 0abf
00000010: e25e 18bf 04a5 dcbe 2f92 113f eeea 223f
00000020: 1e60 36bf aa75 2dbf 9e78 aa3e 1f99 32bf
00000030: 5a77 313e eee4 f83d 3d79 06bf 8077 bcbe
00000040: de86 2cbf 914b 06bf 3933 b7bd 3b1e 02bf
00000050: c159 fabe e141 233f 9591 123f 0f5b 2b3f
00000060: fcbd 353f 3d7f 58bf a21c a53d 0f3d 5dbf
00000070: 1d11 34bf 7bad 313f cfb2 d2be c3b7 2ebf
00000080: d54f 163f 674e 393f 7948 093f c7ca 1fbf
00000090: 312f ebbe d052 5d3e 5109 223f ca0f e4be
000000a0: 0730 f53e ac4b 22bf 9c0b 0abf f61d 0a3f
000000b0: d2b0 26bf 07af 1fbf 07f0 183f d9dc 213f
000000c0: 0a45 67be be2a 013f 1dbb 48bf 238e 2cbf
000000d0: db45 193f 0251 ea3e fbf5 353f 843d 153f
000000e0: 5d78 02bf 892a 093f ed0f 423f 0e85 493f
000000f0: 4ef4 32bf 68d6 0dbf 472f edbe c157 2e3f

norm.weight f4 [64]
0.30262643 1.5717788 1.152596 0.37025008 1.1015569 1.2911477 1.4556909 1.509392
2.4598987 0.4919408 0.4530205 2.1922991 0.7426203 0.6408841 1.4310977 1.3893026
0.51752293 0.98185074 0.8310009 0.4104861 1.6525207 1.9092764 1.7010729 1.5621984
1.6075486 1.7348976 0.6332336 0.7888653 1.4364213 1.7293456 1.7707012 1.57584
1.4860084 1.5506262 0.33545795 1.1930503 1.4056942 0.69264895 0.7253641 1.0440674
1.6787151 1.2923235 0.42287338 1.4489231 1.5605842 1.9543494 1.5487542 1.7430705
1.1464605 1.5457617 1.4542958 1.3432038 1.6885531 1.4462985 1.7394869 1.7629453
1.6021873 1.525696 1.4942658 1.5483912 1.4064636 1.5474051 1.2498121 1.7141883
00000000: daf1 9a3e 0c30 c93f 4488 933f 6b91 bd3e
00000010: d1ff 8c3f 5444 a53f 1454 ba3f c233 c13f
00000020: fb6e 1d40 aadf fb3e 4ef2 e73e a14e 0c40
00000030: 5d1c 3e3f fb10 243f 362e b73f abd4 b13f
00000040: 627c 043f 925a 7b3f 7abc 543f 3c2b d23e
00000050: cc85 d33f 2b63 f43f c2bc d93f 1ef6 c73f
00000060: 27c4 cd3f 2011 de3f 991b 223f 14f3 493f
00000070: a7dc b73f 325b dd3f 56a6 e23f 20b5 c93f
00000080: 8635 be3f eb7a c63f 25c1 ab3e dfb5 983f
00000090: caed b33f 7151 313f 76b1 393f 00a4 853f
000000a0: 23e0 d63f db6a a53f dc82 d83e 5076 b93f
000000b0: 39c1 c73f 1f28 fa3f 943d c63f ef1c df3f
000000c0: 38bf 923f 85db c53f 5d26 ba3f 1aee ab3f
000000d0: 8222 d83f 4f20 b93f 82a7 de3f 31a8 e13f
000000e0: 7914 cd3f 024a c33f 1a44 bf3f af31 c63f
000000f0: 0007 b43f 5f11 c63f d8f9 9f3f 866a db3f

norm.bias f4 [64]
-0.6883452 -0.18308692 -0.7925198 -0.6369875 -0.75934595 -0.7746142 0.45238176 0.44004333
-0.20637283 -0.325803 -0.3976605 -0.76512676 -0.3947998 -0.36700335 1.2605436 0.45017925
-0.75163525 0.22932664 -0.27190328 -0.61941624 0.50036055 0.67809284 0.55020815 0.62416816
0.5738085 0.22892794 -0.30385303 -0.3314742 0.541677 0.6464195 0.499564 -0.48945975
0.60625464 0.5812109 -0.32624483 -0.7689142 0.45619074 -0.3711851 -0.3719305 0.7788706
0.63030994 -0.5704529 -0.6231878 0.58634615 -0.74751264 0.4314344 0.3438686 0.58679265
-0.008448816 0.7430845 0.5178611 -0.8312724 0.6053662 0.40184557 1.0751958 0.71644807
0.6036953 0.4777488 0.2739988 0.5635994 1.3713475 -0.117045864 -0.70120454 0.6367546
00000000: 6437 30bf 237b 3bbe 94e2 4abf 9d11 23bf
00000010: 7f64 42bf 1e4d 46bf 959e e73e 5c4d e13e
00000020: 6653 53be a7cf a6be 289a cbbe 59df 43bf
00000030: 3323 cabe dde7 bbbe 7e59 a13f e57d e63e
00000040: 2b6b 40bf 9ad4 6a3e e836 8bbe 1092 1ebf
00000050: a117 003f 7e97 2d3f 71da 0c3f 7cc9 1f3f
00000060: 1de5 123f 166c 6a3e a092 9bbe fdb6 a9be
00000070: 58ab 0a3f c07b 253f dac6 ff3e 789a fabe
00000080: 8133 1b3f 3dca 143f 9009 a7be 90d7 44bf
00000090: d591 e93e f90b bebe ad6d bebe 1064 473f
000000a0: fe5b 213f 3409 12bf 3c89 1fbf c81a 163f
000000b0: fd5c 3fbf f8e4 dc3e 8c0f b03e 0b38 163f
000000c0: e76c 0abc c93a 3e3f 8c92 043f 45ce 54bf
000000d0: 47f9 1a3f b4be cd3e 04a0 893f 2469 373f
000000e0: c68b 1a3f 7e9b f43e 9249 8c3e 0d48 103f
000000f0: 5188 af3f beb5 efbd 2482 33bf 5902 233f
